models/net_weights.pth (torch, 43120 bytes, 5 tensors)

fc1.weight f4 [128, 13]
0	0x3dcbd20f	0.09952175
1	0xbee67c50	-0.45016718
2	0x3dc3e1e3	0.09564569
3	0x3ebfa8a2	0.37433344
4	0xbd7ae024	-0.061248913
5	0xbeca2db7	-0.39488003
6	0x3f030062	0.5117246
7	0xbeef34d6	-0.46719998
8	0xbbc1d68d	-0.005915469
9	0xbe93b10d	-0.28846017
10	0x3e5ea0f9	0.21741094
11	0xbe61755a	-0.22017422
12	0xbd9e7447	-0.07737022
13	0xbf3c09bf	-0.7345237
14	0x3f268ba8	0.6505685
15	0xbcec5f4e	-0.028854039
16	0xbe4c4f5a	-0.19952145
17	0xbdb0371f	-0.086042635
18	0xbcca22a9	-0.02467473
19	0x3d8d9f1c	0.06915113
20	0x3d49bae3	0.049250495
21	0x3ea8407c	0.32861698
22	0xbdf74e6f	-0.12075507
23	0x3dd6f72e	0.104963645
24	0xbd2e0f99	-0.042495344
25	0x3e8d76af	0.2762961
26	0xbdab0077	-0.08349698
27	0x3e5aabba	0.21354571
28	0xbecb0478	-0.39651847
29	0x3e862339	0.26198748
30	0xbebad68e	-0.36491817
31	0x3efe40ce	0.49658817
32	0xbf16d10d	-0.58912736
33	0x3f37e3d4	0.71832013
34	0xbed1a9dd	-0.40949908
35	0xbdcd94b4	-0.100381285
36	0x3db9bba1	0.090689905
37	0xbe48a1c3	-0.19592957
38	0x3e88fd8b	0.26755938
39	0xbe0a5aa2	-0.13511136
40	0xbe2d13de	-0.1690211
41	0x3e092d9d	0.13396306
42	0xbe8c7469	-0.27432564
43	0xbdf9661e	-0.121776804
44	0xbf2709db	-0.65249413
45	0x3c95d709	0.018291013
46	0xbdeef05c	-0.11666939
47	0x3e18e5c8	0.14931405
48	0x3ea0d8f6	0.31415528
49	0xbe803441	-0.25039867
50	0x3e095a39	0.13413323
51	0xbf3110d8	-0.69166327
52	0x3c8a3be6	0.016874265
53	0x3f16e60f	0.5894479
54	0x3f4bb2c7	0.7956967
55	0x3ec3a009	0.38208035
56	0x3daadcff	0.08342933
57	0x3e8c8e20	0.27452183
58	0x3e4fda85	0.20298202
59	0xbc83f1e8	-0.01610656
60	0xbd3bfdbd	-0.04589628
61	0x3ecd6e30	0.4012313
62	0x3daa55f2	0.08317174
63	0x3e846a30	0.25862265
64	0x3ed71c22	0.4201365
65	0xbef8b2bb	-0.4857386
66	0x3ede09ab	0.4336675
67	0xbef397c2	-0.4757672
68	0x3e2e1f08	0.17004025
69	0xbefbbfb4	-0.49169695
70	0x3e6122ac	0.21985883
71	0xbeb30aaf	-0.34969088
72	0xbe0cd979	-0.13754834
73	0xbe99f280	-0.30067825
74	0x3e2c9af8	0.16855991
75	0x3ce3205e	0.027725395
76	0xbeafbcdd	-0.3432378
77	0x3e80ebef	0.25180003
78	0x3e3f8cfc	0.18706125
79	0xbe81631a	-0.2527092
80	0x3dcc48e7	0.099748425
81	0xbe2aff48	-0.16698945
82	0x3f1c3887	0.61023754
83	0xbeb887e2	-0.3604117
84	0x3eb537c8	0.3539412
85	0xbe99c2ff	-0.30031583
86	0x3bf552cf	0.007486678
87	0x3ddefdce	0.10888253
88	0xbe695bf6	-0.22788987
89	0x3e0c3277	0.13691126
90	0xbe8150ce	-0.25256962
91	0xbf567ff1	-0.83788973
92	0x3e2397dc	0.15975899
93	0xbe213873	-0.1574419
94	0xbe197246	-0.14984998
95	0x3e9b1cea	0.30295497
96	0xbf1a94aa	-0.60383093
97	0xbeb2afc6	-0.3489973
98	0xbed3a9a8	-0.41340375
99	0xbe9fe646	-0.31230372
100	0x3e047ad5	0.12937482
101	0x3e702254	0.23450595
102	0x3e0f81a2	0.14014295
103	0x3d9bdc8d	0.07610426
104	0xbc42267d	-0.011849997
105	0xbe51f50c	-0.20503634
106	0xbe405cb9	-0.18785371
107	0xbeb61a91	-0.35567144
108	0x3db6cbd0	0.08925593
109	0xbf5d9681	-0.86557776
110	0x3d834fae	0.06411682
111	0x3d35feb2	0.04443235
112	0x3e6816a7	0.22664891
113	0x3ea6cb1a	0.3257683
114	0x3ee17d36	0.4404084
115	0x3e464eb3	0.19365959
116	0x3eee2297	0.46510765
117	0xbe49de0e	-0.19713613
118	0x3e009bdc	0.12559456
119	0xbe55d61f	-0.20882462
120	0x3e9b42f3	0.30324516
121	0xbee0cbd9	-0.43905523
122	0x3ed56031	0.4167495
123	0xbdfcd2d3	-0.12344899
124	0x3e594f8a	0.21221748
125	0xbe33523c	-0.17511839
126	0x3eb87d25	0.36032978
127	0x3dd72399	0.105048366
128	0x3e7a9e08	0.24474347
129	0xbde584b9	-0.112069555
130	0x3e2e7a91	0.17038943
131	0xbec74b5d	-0.38924685
132	0x3ddb9ece	0.10723649
133	0x3e899d50	0.26877832
134	0x3e018430	0.12648082
135	0xbe9415bd	-0.28922835
136	0x3ef07f93	0.4697233
137	0xbecfeb3d	-0.4060916
138	0x3f2bed32	0.67158806
139	0xbf310b28	-0.6915765
140	0x3f021407	0.5081181
141	0xbef695d6	-0.4816119
142	0x3ecc99ab	0.3996099
143	0xbec121f9	-0.37721232
144	0x3f1ccf84	0.61254144
145	0xbf018374	-0.50591207
146	0xbed76d2a	-0.42075473
147	0x3e93b022	0.28845316
148	0xbf19b881	-0.60047156
149	0xbda656b3	-0.08122005
150	0xbea9588e	-0.33075374
151	0xbd6d4e62	-0.05793608
152	0xbf2e91b0	-0.6819105
153	0x3e5b9ad7	0.21445785
154	0xbde7b3f5	-0.11313621
155	0xbe90d906	-0.28290576
156	0x3eeed012	0.4664312
157	0xbdb41e02	-0.08794786
158	0x3e745d4e	0.23863718
159	0xbf696743	-0.9117319
160	0xbc568b7e	-0.013094781
161	0x3d891997	0.06694334
162	0x3dfb239b	0.122626506
163	0x3db51738	0.08842319
164	0xbeb3fd05	-0.35153976
165	0x3e82bd8c	0.25535238
166	0x3dd426f1	0.1035899
167	0x3e80f0e6	0.2518379
168	0x3dcbe085	0.09954933
169	0x3ec927fd	0.3928832
170	0xbe616b39	-0.22013558
171	0x3ed741f6	0.42042512
172	0xbb1a0407	-0.0023500936
173	0xbe0a2bce	-0.13493273
174	0xbf389212	-0.72097886
175	0xbeacf7bb	-0.33782753
176	0xbeb90b80	-0.36141586
177	0xbea19f8c	-0.31567037
178	0x3c8f9d49	0.017531054
179	0x3ed77ce2	0.42087466
180	0xbe066b18	-0.1312679
181	0x3e53c574	0.20680791
182	0xbe24404b	-0.16040151
183	0xbeb068fb	-0.34455094
184	0xbe82ee18	-0.25572276
185	0x3f0cc48e	0.5498742
186	0xbe4fefbc	-0.20306295
187	0xbebeeedc	-0.3729161
188	0xbe40b0c0	-0.18817425
189	0x3c0af101	0.008480311
190	0xbeff60e0	-0.49878597
191	0x3e47b79c	0.19503635
192	0xbe10514a	-0.1409351
193	0x3c555bb9	0.013022357
194	0xbe3f4446	-0.18678388
195	0x3f6ef39a	0.93340456
196	0x3f65b5ba	0.8973042
197	0x3da0e7b4	0.07856694
198	0x3eda6691	0.42656377
199	0xbdd7ec86	-0.1054316
200	0x3e49d896	0.19711527
201	0xbe2c81f8	-0.16846454
202	0x3e204b64	0.15653759
203	0xbe9083f1	-0.28225663
204	0xbc2a2ae6	-0.010386204
205	0xbeb1460c	-0.34623754
206	0x3cf21c68	0.02955456
207	0xbe80420b	-0.25050387
208	0xbe27b3fe	-0.16377255
209	0x3f9fa048	1.2470789
210	0xbefb1d05	-0.49045578
211	0x3f14a5f0	0.580657
212	0x3d9b02f8	0.075689256
213	0x3e38b555	0.18037923
214	0xbe075f62	-0.1321998
215	0xbd40e20f	-0.047090586
216	0xbeea727e	-0.45790476
217	0x3e310d42	0.17290214
218	0xbe5338e9	-0.20627178
219	0xbe6898da	-0.22714558
220	0xbe0f4da7	-0.13994466
221	0xbeb56001	-0.35424808
222	0x3d23c84b	0.039985936
223	0x3f553792	0.8328792
224	0x3d543f60	0.05181825
225	0x3ec11d67	0.37717745
226	0xbed322ce	-0.4123749
227	0x3f05de82	0.52292645
228	0xbf26e64d	-0.6519516
229	0x3c120fb0	0.008914873
230	0x3d8a5cb7	0.06755965
231	0x3dd9653e	0.106150135
232	0xbe46eac3	-0.19425492
233	0x3e5942b8	0.21216857
234	0x3c1170d5	0.008876999
235	0xbefcc606	-0.4936983
236	0xbee36a61	-0.44417098
237	0x3d52a29f	0.05142462
238	0x3f391a55	0.72305804
239	0xbd78025c	-0.060549125
240	0xbe3e5ab6	-0.18589291
241	0xbf00d54a	-0.50325453
242	0x3dbf46fa	0.093397096
243	0x3e4815b6	0.19539532
244	0x3de8315e	0.11337541
245	0xbe387c99	-0.1801628
246	0x3c1204bc	0.008912262
247	0xbee9c1de	-0.4565572
248	0xbf4e84a7	-0.8067116
249	0x3e3d5386	0.18488893
250	0x3d8ce363	0.06879308
251	0x3d50e4d2	0.05099947
252	0xbed97b5f	-0.42476937
253	0xbf25e490	-0.64801884
254	0xbe9df7f9	-0.3085325
255	0xbde140f9	-0.10998721

fc1.bias f4 [128]
0	0x3ec05a16	0.3756873
1	0xbf018e4f	-0.5060777
2	0x3d7ad27e	0.061235897
3	0xbea3a4d8	-0.31961703
4	0xbf6ff411	-0.9373179
5	0xbc86a28d	-0.016434932
6	0x3e36480a	0.17800918
7	0xbedef060	-0.43542767
8	0xbf43c7b6	-0.7647661
9	0x3ecf0f00	0.40441132
10	0xbeb4c37a	-0.35305387
11	0xbf4d2021	-0.8012715
12	0xbe2a5a23	-0.16635947
13	0xbe855340	-0.26040077
14	0xbd36868a	-0.0445619
15	0xbf96388c	-1.1736007
16	0xbf87469b	-1.0568422
17	0xbf0313f5	-0.51202327
18	0xbe0d08fc	-0.13772959
19	0xbf76be75	-0.96384364
20	0xbeafa2da	-0.34303933
21	0xbecbd41e	-0.3981027
22	0xbe9c48a9	-0.30524185
23	0xbf46adb8	-0.77608824
24	0xbf4c57be	-0.79821384
25	0xbee0b26d	-0.43886128
26	0xbc8429fe	-0.016133305
27	0xbf43d68a	-0.76499236
28	0xbf21420a	-0.6299139
29	0xbe700e9d	-0.23443075
30	0xbe17014b	-0.14746587
31	0xbf92bfb0	-1.1464748
32	0xbeecd072	-0.4625278
33	0xbf179a0e	-0.59219444
34	0xbd7e63d0	-0.062106907
35	0xbf6f1340	-0.9338875
36	0xbfb2e406	-1.3975837
37	0xbe26c105	-0.16284569
38	0xbf0926b9	-0.5357471
39	0xbf8bb492	-1.0914481
40	0xbdd9dace	-0.10637437
41	0xbded9a8c	-0.11601743
42	0xbf7a7f13	-0.9785015
43	0xbf271bef	-0.65277
44	0xbf821aa5	-1.0164381
45	0xbf3e239c	-0.74273086
46	0xbf1eb70b	-0.6199805
47	0xbf9e447f	-1.2364653
48	0xbeac233b	-0.3362063
49	0xbf15c4b3	-0.58503264
50	0xbec77fdc	-0.38964736
51	0xbf973273	-1.1812271
52	0xbf8b0eb0	-1.0863857
53	0xbe90a3c1	-0.28249934
54	0xbf71d302	-0.944626
55	0xbed3439c	-0.4126252
56	0xbf5d1aba	-0.86368906
57	0xbf3a84cf	-0.728589
58	0xbf06073e	-0.523548
59	0xbf0f2071	-0.55908877
60	0xbec1163e	-0.37712282
61	0xbebd7e00	-0.37010193
62	0xbf689cda	-0.90864336
63	0xbf93f4a6	-1.1559036
64	0xbeecc617	-0.4624488
65	0xbfc86b4a	-1.5657742
66	0xbf04f688	-0.51938677
67	0xbf65c037	-0.8974642
68	0xbf315b26	-0.69279706
69	0xbf8c535d	-1.096294
70	0xbf855348	-1.041604
71	0xbf9ecea3	-1.240681
72	0xbf0b6e7e	-0.5446547
73	0xbe587287	-0.21137439
74	0xbf70fcc5	-0.94135696
75	0xbe71b973	-0.236059
76	0xbe6e5c61	-0.23277427
77	0xbf8a4ee6	-1.0805328
78	0xbf1f98e0	-0.62342644
79	0xbf57ab29	-0.84245545
80	0xbf467a2d	-0.77530175
81	0xbf210508	-0.628983
82	0x3e475edc	0.1946978
83	0xbe5f57a3	-0.21810775
84	0xbf0cf813	-0.5506603
85	0xbf8d0f74	-1.1020341
86	0xbf23043a	-0.63678324
87	0xbf9d7bd5	-1.2303416
88	0xbf8d3715	-1.1032435
89	0xbf5187ef	-0.81848043
90	0xbf8e3a67	-1.1111573
91	0xbd347201	-0.044054035
92	0xbf89ce08	-1.0766001
93	0xbec80aa7	-0.39070627
94	0xbfa5e9f3	-1.2962021
95	0xbf07334f	-0.52812666
96	0xbe1cca7b	-0.15311615
97	0x3f02c4de	0.51081645
98	0xbedd0f4c	-0.43175733
99	0xbf61539f	-0.8801822
100	0xbf471bde	-0.77776897
101	0xbf27c97a	-0.65541804
102	0xbde3dbe6	-0.11125927
103	0xbfc49f34	-1.5361085
104	0xbf209438	-0.62726164
105	0xbec185cd	-0.37797394
106	0xbe6392d8	-0.22223985
107	0xbdf53dd4	-0.119746834
108	0xbf16e727	-0.5894646
109	0xbf0dce02	-0.5539247
110	0x3e921d58	0.28538013
111	0xbf13a10f	-0.5766763
112	0xbf03993e	-0.51405704
113	0xbdfae91e	-0.12251495
114	0xbf584b89	-0.8449026
115	0xbfa621ef	-1.2979106
116	0xbf7c651a	-0.9859177
117	0x3ea04948	0.3130591
118	0xbe4e4b3e	-0.2014589
119	0xbf40b753	-0.7527973
120	0xbe8f2668	-0.2795899
121	0xbe667c39	-0.22508325
122	0x3e10018d	0.14063092
123	0xbf84e5cd	-1.038263
124	0xbf3ff9e2	-0.74990666
125	0xbf11691c	-0.5680101
126	0xbee6b774	-0.4506184
127	0xbfa94212	-1.3223288

fc2.weight f4 [64, 128]
0	0xbe1c73ac	-0.152785
1	0x3efe5484	0.49673855
2	0x3e6fb14a	0.23407474
3	0xbea96b37	-0.3308961
4	0xbed71753	-0.42009982
5	0x3e8ccee2	0.2750159
6	0xbea84ff7	-0.32873508
7	0xbe5c9e94	-0.21544868
8	0x3b5aa90a	0.0033364915
9	0xbddbf159	-0.10739393
10	0xbf5269ca	-0.8219267
11	0x3ea6db81	0.32589343
12	0x3daf4806	0.08558659
13	0x3e08aef5	0.13347991
14	0x3db8889f	0.090104334
15	0x3e581623	0.21102194
16	0x3f01501c	0.5051286
17	0x3eadf99a	0.33979493
18	0xbf43211f	-0.76222414
19	0xbe22c599	-0.1589569
20	0x3e798970	0.24368834
21	0xbf0e0416	-0.55474985
22	0x3d92eeeb	0.07174476
23	0xbe8f2c11	-0.27963307
24	0x3e9732b0	0.2953086
25	0xbf0f00a8	-0.55860376
26	0xbdb18927	-0.08668738
27	0x3eb61033	0.35559234
28	0xbeec0a92	-0.46101815
29	0x3e3290a1	0.17437984
30	0xbd73c465	-0.05951347
31	0x3d2e1e2f	0.042509254
32	0xbe465a21	-0.19370319
33	0x3f29b24d	0.6628769
34	0xbe8f6400	-0.2800598
35	0xbf7f28a3	-0.9967138
36	0xbf8ebeb0	-1.1151943
37	0x3ecc87ec	0.3994745
38	0xbefdcb81	-0.49569324
39	0x3f75213e	0.9575385
40	0xbe2d36d2	-0.16915444
41	0xbd5c616c	-0.053803846
42	0xbe92f14b	-0.28699717
43	0x3bd44a26	0.0064785657
44	0xbda9c279	-0.08289046
45	0x3e97f378	0.2967794
46	0xbef79536	-0.48356026
47	0x3d9cd307	0.07657438
48	0x3e01b7b5	0.12667735
49	0x3d812f22	0.06307818
50	0x3f03e963	0.51527995
51	0x3da59807	0.080856375
52	0xbd4f20a1	-0.050568227
53	0xbf0af180	-0.5427475
54	0x3e9da4f5	0.30789915
55	0x3da38b51	0.07985557
56	0x3b6f93d2	0.0036556614
57	0x3e630303	0.22169118
58	0x3f07eb85	0.5309375
59	0xbf0a250f	-0.53962797
60	0x3f01e920	0.50746346
61	0x3e8a1efa	0.26976758
62	0x3e55a540	0.20863819
63	0xbccf18a1	-0.025280299
64	0xbf267183	-0.65016955
65	0x3f021b23	0.5082266
66	0xbfb06f5d	-1.3783985
67	0x3f2ceb62	0.67546666
68	0x3f052e28	0.52023554
69	0xbec2cfcf	-0.3804917
70	0x3d847d42	0.064692035
71	0x3f336f19	0.70091397
72	0x3cfef85c	0.031124286
73	0xbf69ee99	-0.91379696
74	0xbe51a681	-0.20473672
75	0xbf630e65	-0.8869384
76	0x3e7f0ed1	0.24907996
77	0xbf44030b	-0.76567143
78	0x3e0b4d94	0.13603812
79	0xbf593acc	-0.8485534
80	0xbe1af43d	-0.15132232
81	0x3e9f7b71	0.31148866
82	0x3e0ac188	0.13550389
83	0x3e02577d	0.12728687
84	0xbf0a9f07	-0.54148906
85	0x3d7392bd	0.059466112
86	0x3d6436ff	0.05571651
87	0xbe188257	-0.1489347
88	0xbf290c53	-0.6603443
89	0xbe9848f1	-0.2974315
90	0x3f540055	0.82813007
91	0xbe899928	-0.2687466
92	0x3efca8eb	0.49347624
93	0x3e6355df	0.22200726
94	0x3efdce41	0.49571422
95	0xbdfa14d9	-0.122110076
96	0xbf8fd59f	-1.1237067
97	0xbc671bb2	-0.014105724
98	0xbfc262e5	-1.518643
99	0xbd88b6f6	-0.06675522
100	0x3b929594	0.0044733975
101	0x3e9a698d	0.30158654
102	0x3e056fa1	0.13030864
103	0x3f21e329	0.63237244
104	0x3be09f2a	0.0068549113
105	0x3dec8b81	0.11550046
106	0x3eb07625	0.34465137
107	0x3cc40d10	0.02393201
108	0xbe567971	-0.20944764
109	0xbd7e2e88	-0.062056094
110	0xbe9cc7e2	-0.30621248
111	0xbe744b6d	-0.23856898
112	0x3dc4255c	0.09577438
113	0x3c1fc51b	0.009751583
114	0xbe3eecfb	-0.18645088
115	0x3dc78559	0.09742231
116	0xbeabaae4	-0.33528817
117	0xbcdd090e	-0.026981857
118	0x3e974d62	0.29551226
119	0xbdf4a6c7	-0.11945873
120	0x3e1733e5	0.1476589
121	0xbe03c0ab	-0.12866466
122	0xbe78058c	-0.24220866
123	0x3eca605a	0.39526635
124	0xbecdb5bc	-0.40177715
125	0xbee02a1a	-0.4378212
126	0xbea5a210	-0.32350206
127	0x3d8ca29d	0.068669535
128	0xbcb9150e	-0.022593047
129	0x3e8500b7	0.25977108
130	0xbe05a731	-0.1305206
131	0x3e932ff5	0.28747526
132	0x3ee033a1	0.4378939
133	0xbe81059a	-0.25199586
134	0x3e5753c3	0.21028046
135	0xbd331a5a	-0.043726303
136	0x3ead6230	0.33863974
137	0xbe12aca8	-0.14323676
138	0x3f04c060	0.5185604
139	0xbe349177	-0.17633615
140	0xbf2295d9	-0.635099
141	0xbf1d5429	-0.61456543
142	0xbf311b19	-0.6918197
143	0x3eed94fc	0.4640273
144	0x3e8b1a09	0.271683
145	0xbee3f17c	-0.44520175
146	0xbe843edc	-0.25829208
147	0x3d854d58	0.06508893
148	0xbe8d122c	-0.27552927
149	0x3e39182b	0.18075626
150	0xbe72b1e2	-0.2370067
151	0x3db0befd	0.08630178
152	0x3f04d839	0.5189243
153	0xbec8d8e5	-0.39227977
154	0xbeb59f47	-0.3547308
155	0xc0093fb7	-2.1445138
156	0x3f1f7ee3	0.6230299
157	0xbef88332	-0.48537594
158	0xbf0b8a9f	-0.54508394
159	0x3f126027	0.57177967
160	0x3e94f3db	0.29092297
161	0x3e3bc167	0.18335496
162	0x3e94141e	0.28921598
163	0xbf053e81	-0.520485
164	0xbdd75a8e	-0.10515319
165	0xbd81c624	-0.063366205
166	0xbe902872	-0.28155857
167	0xbea75cd8	-0.32688022
168	0xbb101d03	-0.0021989949
169	0xbe681225	-0.22663172
170	0x3e3e6e06	0.18596658
171	0x3debf554	0.11521402
172	0x3e971aba	0.29512578
173	0xbf529911	-0.8226481
174	0x3de08cf3	0.10964384
175	0xbf7bdeb5	-0.983867
176	0xbe154729	-0.14577927
177	0xbdafa517	-0.0857641
178	0xbf1f9a39	-0.623447
179	0xbd0a5fee	-0.033782892
180	0xbe60957b	-0.21932022
181	0x3dde087f	0.10841464
182	0x3d4d503f	0.050125357
183	0x3ecf6427	0.40506098
184	0xbedea0df	-0.4348211
185	0x3ebaf8e5	0.36518016
186	0xbf65f255	-0.89822894
187	0xbcfc6304	-0.030808933
188	0x3e6ee9ba	0.23331347
189	0xbf010f05	-0.50413543
190	0xbd258388	-0.04040864
191	0x3f90d6d3	1.1315559
192	0xbbeefa11	-0.007292994
193	0x3f428255	0.7598012
194	0xbe7e01d6	-0.24805388
195	0xbecc216c	-0.3986925
196	0x3f17ea52	0.5934192
197	0xbbdc02ea	-0.0067142146
198	0xbe3b3e82	-0.18285564
199	0xbf0e4447	-0.5557293
200	0xbf3dbb14	-0.74113584
201	0xbe26fe69	-0.16307987
202	0xba50f6cf	-0.00079713477
203	0xbe94d744	-0.29070485
204	0x3eda6640	0.42656136
205	0x3f2a7c53	0.66595954
206	0x3f3ff79e	0.7498721
207	0x3d96f621	0.07371164
208	0xbfb8b8e0	-1.4431419
209	0x3ddde55b	0.10834762
210	0x3f80c0fb	1.0058893
211	0x3c835eb3	0.016036367
212	0xbe99abae	-0.30013794
213	0x3ee627b4	0.44952166
214	0xbeb2c6b8	-0.34917235
215	0xbf0f97cb	-0.5609099
216	0x3e9b0753	0.30279025
217	0x3ea5af94	0.32360518
218	0x3ecce659	0.4001949
219	0x3ee08aa2	0.43855768
220	0x3cb56c7a	0.022146452
221	0xbe943d54	-0.2895304
222	0xbec8f303	-0.39247903
223	0x3da138c7	0.078721575
224	0x3cbd25d5	0.023089329
225	0xbdd77e0a	-0.10522087
226	0x3e5bd07e	0.21466252
227	0x3d3a2a8e	0.04545074
228	0x3f22b8ee	0.6356343
229	0x3da0557d	0.078288056
230	0x3e193512	0.14961651
231	0x3eaf5524	0.34244645
232	0xbe14f4d4	-0.1454652
233	0xbf3fadfa	-0.7487484
234	0xbed872d0	-0.42275095
235	0xbf923dd7	-1.1425122
236	0xbed6e38b	-0.41970477
237	0x3e2f6cea	0.17131391
238	0xbd8642d6	-0.06555717
239	0x3f02fef2	0.51170266
240	0xbe509372	-0.20368746
241	0xbfb28571	-1.3946973
242	0x3ecc8b82	0.39950186
243	0xbf7219db	-0.945707
244	0x3c37e8fc	0.011224981
245	0x3e1b1d28	0.15147841
246	0xbc3870f6	-0.011257401
247	0xbe091323	-0.13386206
248	0xbe795ad4	-0.24351054
249	0x3d9af14c	0.07565555
250	0xbed3902a	-0.41320926
251	0x3e06a1e8	0.131477
252	0xbe6be1b4	-0.23035318
253	0xbd569856	-0.052391373
254	0x3e73bce8	0.23802531
255	0xbe7423b7	-0.23841749

fc2.bias f4 [64]
0	0xbdb68178	-0.08911413
1	0xbdb9e092	-0.090760365
2	0x3eb3f71a	0.3514946
3	0xbf741ede	-0.953596
4	0xbea07898	-0.31342006
5	0x3f088961	0.53334624
6	0xbe05bbb9	-0.13059892
7	0xbf8e2475	-1.1104876
8	0x3da2afcf	0.07943689
9	0xbf3a4fe4	-0.72778153
10	0x3ebc3596	0.36759633
11	0xbe74baab	-0.23899333
12	0xbd479dec	-0.04873459
13	0xbda6571e	-0.08122085
14	0x3e31841a	0.17335549
15	0xbec1ac98	-0.3782699
16	0xbd71201f	-0.058868524
17	0x3f484d26	0.7824272
18	0x3e4ae7ff	0.19815062
19	0xbf59cf01	-0.8508149
20	0x3e8b30d3	0.27185687
21	0xbe882447	-0.26590177
22	0x3ea1b877	0.31586048
23	0xbf9c613f	-1.2217177
24	0x3e0a758f	0.13521408
25	0xbf436bf3	-0.7633659
26	0x3e7060de	0.23474452
27	0xbe235de8	-0.15953791
28	0x3e275422	0.16340688
29	0xbec3903b	-0.38195977
30	0xbf31039a	-0.6914612
31	0x3ebd9ff2	0.3703609
32	0xbe78218c	-0.24231547
33	0x3ed056fd	0.40691367
34	0xbf849a19	-1.0359527
35	0x3f6c389b	0.92273873
36	0x3e024d6a	0.12724844
37	0x3da1219f	0.07867741
38	0xbed02d8d	-0.40659752
39	0x3ede3639	0.43400744
40	0x3eb25384	0.34829342
41	0x3e054b00	0.13016891
42	0x3e529e99	0.20568313
43	0xbe3cbf80	-0.18432426
44	0xbd2ceecc	-0.042219922
45	0xbcb0e2d6	-0.021592539
46	0xbead577a	-0.33855802
47	0x3eb4e466	0.35330504
48	0xbf00ee0f	-0.5036325
49	0xbdcf3f5d	-0.101195075
50	0x3e88992c	0.2667936
51	0x3eff2fea	0.49841243
52	0xbe27fedf	-0.1640582
53	0xbdee351d	-0.11631224
54	0x3ee22ae9	0.44173363
55	0x3e7d1894	0.24716407
56	0x3f0e3df5	0.5556329
57	0xbe3707fb	-0.17874138
58	0x3e879046	0.2647726
59	0x3b8be138	0.0042687915
60	0xbf23771f	-0.6385364
61	0x3e38139b	0.17976229
62	0x3f49f574	0.78890157
63	0x3e7a9408	0.24470532

output.weight f4 [1, 64]
0	0xbece04bc	-0.40237987
1	0x3f2ee5bf	0.68319315
2	0x3ea6a4d3	0.32547626
3	0xbf42a9cb	-0.76040334
4	0xbedf850b	-0.4365619
5	0xbefcec97	-0.49399254
6	0xbf0783c5	-0.5293544
7	0xbeec1e9c	-0.46117103
8	0x3eae323f	0.3402271
9	0x3f6ec850	0.932744
10	0x3e4ba5b6	0.19887432
11	0x3e83799d	0.2567872
12	0xbf1d35e2	-0.61410344
13	0x3eb25c9c	0.3483628
14	0x3ed6d147	0.4195654
15	0x3f26f2a2	0.6521398
16	0x3f09af4e	0.5378312
17	0x3eea9989	0.45820263
18	0x3f0cd2f2	0.55009377
19	0x3fb9a182	1.4502413
20	0xbea674ac	-0.3251089
21	0x3e836dd8	0.25669742
22	0x3f9a2eff	1.2045592
23	0xbf57ba3f	-0.84268564
24	0x3ece0bbe	0.40243334
25	0xbec1a097	-0.37817833
26	0x3e92eb8f	0.28695342
27	0x3e4fcf98	0.20294034
28	0x3ec2322a	0.37928897
29	0x3ebb3d76	0.36570328
30	0xbe89ba4a	-0.2689994
31	0x3f3f5292	0.7473537
32	0x3e60d7a0	0.21957254
33	0xbf41928e	-0.7561425
34	0x3f27cd13	0.65547293
35	0x3f5ec1bb	0.8701436
36	0x3f1525c4	0.5826075
37	0xbf85160e	-1.0397356
38	0x3eeb5977	0.45966694
39	0xbf299b41	-0.66252524
40	0x3e9d5516	0.30728978
41	0xbedb0a96	-0.42781514
42	0xbe478f2e	-0.19488212
43	0xbec6a94d	-0.3880104
44	0xbf09c2e2	-0.5381299
45	0x3eb9a676	0.36259812
46	0x3eeac2d0	0.45851755
47	0xbf0f28d1	-0.55921656
48	0xbea01e70	-0.31273222
49	0x3f6e34db	0.930494
50	0x3ee5dc36	0.4489457
51	0xbef94b56	-0.4869029
52	0x3e965514	0.29361784
53	0x3edbcb14	0.42928374
54	0xbf608e17	-0.8771681
55	0x3f168c8e	0.5880822
56	0xbf0bd6f9	-0.546249
57	0x3ee47ab2	0.4462486
58	0xbf011ed6	-0.50437677
59	0xbeadff70	-0.33983946
60	0x3fb93eae	1.4472253
61	0xbeed91a8	-0.4640019
62	0xbf07378a	-0.5281912
63	0xbf05b0c4	-0.5222285
